day09PyTorch基础与神经网络基础/simple_nn_model.pth (torch, 3160 bytes, 5 tensors)

layer1.weight f4 [10, 2]
0	0xbfb5759f	-1.417652
1	0xbec0aa04	-0.37629712
2	0x3f35eaa0	0.71061134
3	0xbfa6b787	-1.3024758
4	0xbf1763df	-0.59136766
5	0xbfc255d6	-1.5182445
6	0x3fda4f9d	1.7055546
7	0x3f3ec861	0.74524504
8	0xbed230b3	-0.4105278
9	0x3f6079c6	0.8768581
10	0x400fe88f	2.2485693
11	0x3e99ebc6	0.30062693
12	0x3f63ab75	0.889335
13	0xbf94f84e	-1.1638277
14	0xbfb5cc23	-1.4202923
15	0x3e9c2d65	0.30503383
16	0xc00fcb18	-2.2467709
17	0x3e979098	0.29602504
18	0x3fe6788f	1.8005542
19	0xbf10b78c	-0.5653007

layer1.bias f4 [10]
0	0x4004ada6	2.0730987
1	0x3baccef7	0.0052736956
2	0xbf07598c	-0.5287101
3	0x3fcf7d36	1.6210086
4	0x3eaa13ea	0.33218318
5	0xbfc7df5c	-1.5615039
6	0x3c999676	0.018748503
7	0x3fb954b7	1.4478978
8	0xbf3d2f50	-0.7390032
9	0x3f48990c	0.7835853

layer2.weight f4 [10, 10]
0	0x3fa5520f	1.2915667
1	0x3f4dcdd8	0.8039222
2	0x3e5e19c0	0.2168951
3	0xbf63a08a	-0.8891684
4	0x3df31912	0.11870016
5	0x3fcf3362	1.6187556
6	0x3f8e3813	1.1110862
7	0x3f89914a	1.0747464
8	0xbfc82335	-1.5635744
9	0xbe1cd1c7	-0.15314399
10	0xbe32954d	-0.17439766
11	0xbea7004e	-0.3261742
12	0xbe14d272	-0.14533404
13	0x3e7831cd	0.24237747
14	0x3f135d19	0.5756393
15	0xbe849447	-0.25894377
16	0x3cebf1d4	0.028801836
17	0xbe9798e6	-0.2960884
18	0x3fcf9944	1.6218648
19	0xbf135643	-0.575535
20	0x3f4eed2f	0.80830663
21	0x3f2b0c22	0.6681539
22	0x3e961757	0.29314682
23	0xbeb60739	-0.35552385
24	0x3e80e4c4	0.25174534
25	0x3fa0baf7	1.2557057
26	0x3f34ecc8	0.706738
27	0x3f59927d	0.8498915
28	0xbfab2d52	-1.3373206
29	0x3e82b154	0.25525916
30	0xbf04ebb3	-0.5192215
31	0xc0700278	-3.7501507
32	0x3e22638b	0.15858285
33	0x3fcb837b	1.58995
34	0xbe36edba	-0.17864123
35	0xc0843586	-4.1315336
36	0xc0cdfade	-6.4368734
37	0x3e3ee2b9	0.18641175
38	0x402379d5	2.554311
39	0xbe348909	-0.176304
40	0x3d213747	0.039359357
41	0xbf4e5b76	-0.8060831
42	0x3fc2ab00	1.5208435
43	0x3fd22e7f	1.642044
44	0x3f18470b	0.594834
45	0xbfe86b9c	-1.815784
46	0xbf90a6df	-1.1300925
47	0xbf7c6375	-0.9858926
48	0x3fa7e3d8	1.3116407
49	0x3fa18afd	1.2620541
50	0xbf758c50	-0.95917225
51	0x3ebdc1fd	0.37062064
52	0xbd9889de	-0.07448171
53	0x3ec5b044	0.38611042
54	0xbef6f2ba	-0.4823206
55	0x40089964	2.1343622
56	0x3f17922a	0.59207404
57	0xbed718bd	-0.4201106
58	0x3eeeeba8	0.46664166
59	0x3ee49bfa	0.4465025
60	0xbf900881	-1.1252595
61	0x3dfbd67c	0.12296769
62	0xbea5c0a7	-0.32373545
63	0x3f13f272	0.5779182
64	0x3fa59521	1.2936136
65	0x406cc5cd	3.6995728
66	0x3f2f55f4	0.6849053
67	0xbf6352f7	-0.8879847
68	0xc0bec227	-5.9612
69	0x3f8f7b36	1.1209476
70	0x3ead87e7	0.33892748
71	0xbf3c3f1a	-0.73533785
72	0x3fed3a04	1.853333
73	0x3faada79	1.3347923
74	0x3ec06b5e	0.37581915
75	0xbfd555a2	-1.6666758
76	0xbfb93e88	-1.4472208
77	0xbfa8a1b9	-1.3174354
78	0x3fa715d7	1.305354
79	0x3fb1eb09	1.3899852
80	0xbf5958f8	-0.8490138
81	0xbdf50a0d	-0.11964808
82	0xc009d07b	-2.1533496
83	0x3e1dce9e	0.1541085
84	0xbea9619d	-0.33082286
85	0x3e8d34ed	0.27579442
86	0x3ec99e07	0.39378378
87	0xbf5c7cf4	-0.86128163
88	0x3e653152	0.22382095
89	0x3e74e135	0.23914035
90	0xbf64b811	-0.89343363
91	0xbf6c156c	-0.9222019
92	0xbf2cb06b	-0.6745669
93	0x3fc74df4	1.5570664
94	0xc08707ac	-4.2196865
95	0xbf91ef1f	-1.1401099
96	0xbf309929	-0.68983704
97	0xbfbcbedc	-1.4745746
98	0xbd564288	-0.052309543
99	0x3f3b18d5	0.73084766

layer2.bias f4 [10]
0	0x3f34f5bc	0.7068746
1	0xbe41fe24	-0.18944603
2	0x3ebc23f4	0.3674618
3	0xbfc3d30e	-1.5298784
4	0x3eacdc68	0.33761907
5	0xbec7b1dc	-0.39002883
6	0xbf89c501	-1.0763246
7	0x3ea7ea25	0.32795826
8	0x3de0d065	0.10977248
9	0x3e166629	0.14687409

layer3.weight f4 [1, 10]
0	0x3f5896ed	0.84605294
1	0xbf3b3603	-0.7312929
2	0x3f41bacc	0.75675654
3	0xc04e880a	-3.2270532
4	0xbf9296b5	-1.1452242
5	0x3ff7e98c	1.9368148
6	0x405737a8	3.362772
7	0xbfac1997	-1.3445309
8	0x3fc1bcc8	1.5135736
9	0xc08e9667	-4.4558597
